python 3/data.pth (torch, 7319 bytes, 6 tensors)

l1.weight f4 [8, 74]
00000000: b4ce 9fbe 1c6a f6bd 5b9e 7f3f 2f9e f2be
00000010: 7bee 7f3f 014c 8bbe 9cb6 d93d 6327 403f
00000020: 34e0 dbbe 79cc 1a3f 671b 4bbe 27c7 f13e
00000030: 585e c53e 36e0 f8bd 463c 3e3f df6f 323f
00000040: caf4 8bbe cc6a 0bbe f07f 903e c2ec ab3e
00000050: 4d32 0e3f 723c d4bd 4cf2 103f c31b 4bbe
00000060: e5eb 793e 12ec cb3e 13a8 1b3e 6689 843e
00000070: fa77 c1bd 7a71 8cbe e243 0d3f f245 a53e
00000080: a10f e03e e1e4 003f 736e 993e cd8c 51be
00000090: 522d b03e 6011 98be 690e 9c3e 6d3d 453e
000000a0: 3792 5a3d 7c95 563e 5ddd fb3d 8679 bdbe
000000b0: 395e 8dbe efb6 703f d502 f53d 4575 73be
000000c0: 868a 0abf db21 123e 0e49 9e3e f199 aabe
000000d0: 1115 113e ab4b f13e 8984 c2be d081 a03d
000000e0: 49d1 0e3b 9076 683e efdc c33e 7d1a b93e
000000f0: 8f45 1c3f a172 593e 83ca 0cbf b077 29bf
00000100: 4724 8ebe 9215 ba3e 11dd 613e 53ef 2b3f
00000110: 2d6c 8a3e a3c0 ba3e 6523 8e3e 7027 15bf
00000120: 72e6 da3e 8423 d73d 07dc 943d bdb7 343f
00000130: 1d40 20bf ad05 86bd 0c89 17bf 5a62 6abc
00000140: 7f65 393f 108a 9f3e b2f2 e4be 46fd cc3e
00000150: e888 8b3e 7e25 b4be 1950 20bf daae 883f
00000160: 5f95 13be 19dc 9b3d 3256 323f c994 1e3f
00000170: 6ec0 e3bd f118 aabe 4db1 16bf 0ccf 733f
00000180: 9dc6 84be bc6a a03e a2a3 ba3e b195 053f
00000190: 1f59 91be 5bb7 c3be fc0b 673f e843 2c3f
000001a0: 7feb bc3e dde2 2abe d422 c2be 3e4a 8dbe
000001b0: 2a31 eb3c f61c 603e e74f a4be 8645 f8bd
000001c0: f5ee 943e 0f36 90be 44a3 c4bd 2a3a 3dbd
000001d0: dbcd 6dbe d3ff 3f3f e48a 7f3e f245 20bf
000001e0: b431 cc3e 1f30 ed3e b4e1 193f b605 6fbe
000001f0: 53b1 67be 3eb9 243f da29 263f bfa9 c33e
00000200: a5ad 6b3f 236b f53e e601 103f 8725 f63e
00000210: f258 a7be 1851 babe 0e2d 1bbf 6ba5 61be
00000220: 8222 05bf 1ffc be3e ec02 4f3f 4965 adbe
00000230: 6291 7abe 33b6 223f 7139 ccbd 35b7 82be
00000240: 11ae b43c 8767 9dbe 1e6a e83e a785 ba3e
00000250: b814 0c3f 6001 bebd 9ffe 1abf 5dc5 5c3e
00000260: d213 22bf bc72 0f3f ce90 4f3f 8ecf ffbe
00000270: e95a 20be 1730 35bd cf26 da3e 0a08 ce3d
00000280: b6f8 873f 6024 8abe 77d2 be3e 8f84 6dbe
00000290: 9301 c7bd ffa7 55bd 5826 033f 1837 d23e
000002a0: a77b 243f 023c 72be aaa8 913b df1c ee3e
000002b0: 6ab5 b8bd 0b16 033e 985a 5d3e 036f a53c
000002c0: f5bb 03be 71b7 06be 55ea eabe 6776 9b3e
000002d0: 8d10 dc3e 1b0c a23e c4d9 393e 850d b63e
000002e0: 5cc4 d53e 6b3e 3ebe 7610 ca3d ad79 003f
000002f0: 5c57 fa3e 453d 133f 630b c83e 0c1b acbc
00000300: cc64 033f acf4 1cbf 4b1e e13c 6163 2c3f
00000310: 1985 373f 357f 993e 6b7f 9d3e 530c 22be
00000320: b56c 0ebf bdf2 febe ef94 e6be 11c3 81bc
00000330: f4d7 62bd 9b54 61bd d563 ab3e edcb 9d3e
00000340: 18c9 2b3f ad34 a43e ec4b 4dbe ee2d 683f
00000350: 15f1 a83e 4850 ab3e 9729 d53e b067 19bf
00000360: a8be 843e 1eba 7bbd a118 b13e 57ce 323f
00000370: ae4e 723d cfeb 403c eb45 e4bd 39c0 423f
00000380: 255f 513f efd1 9cbc 10a4 473f fd2b 23be
00000390: 9866 40bf 86cc 18bf c2f4 7d3e d7af b73c
000003a0: 615e bbbe b6ce d93e 1097 213f 8ef7 ea3d
000003b0: 798f ca3e 6bb0 073f c8dd 6a3f ef5b 263f
000003c0: 8c41 a53e 6537 853e 1a34 c03e ed15 803e
000003d0: 66c5 a53d c77e c2be 37aa 043e 5dfc dcbd
000003e0: 4291 883e d70f d43e f25b 843d f406 89be
000003f0: 2cb3 db3e 91b6 ac3e 3e9b ca3d 989c 8b3e
-0.3121239 -0.120319575 0.99851006 -0.4738631 0.9997327 -0.27206424 0.10630533 0.750601
-0.4294449 0.6046825 -0.19834672 0.47222254 0.3854854 -0.1215214 0.7431072 0.6970195
-0.27335197 -0.13614959 0.2822261 0.3357907 0.555455 -0.103630915 0.56619716 -0.19834809
0.24406393 0.39828545 0.15200834 0.25886077 -0.09446712 -0.27430326 0.55181706 0.32279927
0.43761924 0.5034924 0.2996708 -0.20463867 0.34409577 -0.29700756 0.30479744 0.19261713
0.053362098 0.20955461 0.12298081 -0.37006778 -0.2761095 0.94029135 0.11963431 -0.23775204
-0.5411762 0.14270727 0.3091511 -0.33320573 0.14168192 0.47128043 -0.3799174 0.0783726
0.0021792224 0.22701478 0.38254496 0.3615302 0.6104364 0.21235134 -0.5499651 -0.66198254
-0.27762052 0.36344582 0.22056986 0.67162055 0.27035657 0.36475095 0.2776138 -0.582633
0.4275394 0.10504821 0.072685294 0.7059286 -0.6259783 -0.06544051 -0.5919349 -0.014305675
0.72420496 0.3116002 -0.44716412 0.40036982 0.2725289 -0.35184854 -0.6262222 1.067836
-0.1441245 0.0761034 0.69662774 0.6194578 -0.111206874 -0.33222154 -0.5886429 0.95237803
-0.2593278 0.31331432 0.36452967 0.52181536 -0.28388306 -0.38225827 0.9025266 0.67291117
0.3689842 -0.16688104 -0.37917197 -0.27595705 0.028709967 0.21886048 -0.3209221 -0.121226355
0.2908856 -0.28166243 -0.09601453 -0.046198048 -0.23223059 0.7499973 0.24955326 -0.6260673
0.3988167 0.46325776 0.6011002 -0.23342022 -0.22626238 0.6434516 0.6490761 0.38215443
0.92061836 0.479333 0.56252897 0.48075506 -0.32685047 -0.36389995 -0.60615623 -0.22035758
-0.5200578 0.37301728 0.80863833 -0.33866337 -0.24469522 0.63559264 -0.099718936 -0.255304
0.022055658 -0.30743048 0.4539346 0.36430094 0.54719114 -0.09277606 -0.6054477 0.21559663
-0.63311493 0.56034446 0.8108033 -0.4996304 -0.1565968 -0.044235315 0.42607734 0.10060127
1.0622776 -0.26980877 0.37269947 -0.23195098 -0.09717097 -0.052162167 0.5123038 0.41057658
0.6425118 -0.23655704 0.004445155 0.46506402 -0.09018977 0.12801377 0.2161659 0.020194536
-0.12864669 -0.13155915 -0.45881906 0.3036377 0.42981377 0.3164986 0.18149477 0.3555719
0.41751373 -0.18578498 0.09866421 0.5018566 0.48894775 0.57515365 0.39071187 -0.02100899
0.5132568 -0.6131084 0.027480265 0.6733914 0.71687466 0.29979864 0.30761275 -0.15825014
-0.55634624 -0.4979457 -0.45035502 -0.015840085 -0.05538173 -0.055012327 0.33474603 0.30819646
0.6710372 0.32071438 -0.20048493 0.90695083 0.3299643 0.33459687 0.41633293 -0.5992384
0.2592671 -0.061456792 0.34589103 0.698461 0.059157066 0.011774971 -0.11146148 0.7607456
0.81785804 -0.019143073 0.77984715 -0.15934749 -0.75156546 -0.5968708 0.24800399 0.022422714
-0.36595443 0.4254052 0.6312113 0.114729986 0.39562586 0.5300357 0.9174466 0.6498403
0.3227657 0.26018825 0.3753975 0.25016728 0.080942914 -0.37987348 0.12955557 -0.10790322
0.26673323 0.41418335 0.0646285 -0.26763117 0.42910135 0.33733037 0.09892891 0.2726791

l1.bias f4 [8]
00000000: 6a3d 5c3f ac4a 203f c95c 223f f835 873f
00000010: 4362 353f 8393 233f 3c14 153f 40b7 503f
0.8603121 0.6261394 0.6342283 1.0563345 0.7085306 0.6389696 0.58234 0.8152962

l2.weight f4 [8, 8]
00000000: a8af f2be baae 3a3f 4120 5d3f 6790 dcbe
00000010: ce9c ff3f db61 803e dcfb 81bf 0200 c63f
00000020: a286 063f fdb0 d43f 1849 78bf ca58 b03f
00000030: 8cb1 95bf 734c 1c3f f2f2 653e 7802 993e
00000040: 06cc e3bd 5a34 73be fe53 523e 980f 3abd
00000050: 0060 cf39 f091 9fbe 75dd 823e 1696 92be
00000060: ecf8 0a3f 08a0 31bf 3eff 843f 9040 d4bd
00000070: 80c5 723e 978a b63f 3fa4 5b3f 3b56 70be
00000080: 9de7 b53f ed2c 8bbf e643 ddbe 5433 7a3f
00000090: 6359 ec3e b596 1f3f b05a 90bf ca34 b43e
000000a0: 95cc ac3d 544a 123e 9fdf b03f 42fb 05bf
000000b0: 1779 6abe 2a97 a73f 653d e93f 9b3c 8b3f
000000c0: be84 a1be 3a46 65bf 9a72 a13f 66c0 eb3f
000000d0: 18e7 323f adbc 4bbf bcfb babe 1613 0b3e
000000e0: 6095 673f 266b 17bf c1df 023f 0243 8b3f
000000f0: 146d 0e3f 5826 983f 6235 373f d6cc 3dbf
-0.4739964 0.7292286 0.8637734 -0.4307892 1.9969728 0.25074658 -1.0154986 1.5468752
0.52549183 1.6616513 -0.9698653 1.3777096 -1.1694808 0.6105415 0.22455958 0.29884696
-0.11122899 -0.2375044 0.20539853 -0.045425028 0.00039553642 -0.3116603 0.25559583 -0.2863013
0.54286075 -0.69384813 1.0390394 -0.10363877 0.23708153 1.4261044 0.85797495 -0.23470394
1.4211308 -1.0873085 -0.43215865 0.9773457 0.46161947 0.62339336 -1.1277676 0.35196525
0.084374584 0.14286166 1.3818244 -0.52336514 -0.22897755 1.3093007 1.8221861 1.087787
-0.31546587 -0.8956028 1.2613099 1.841809 0.6988387 -0.7958477 -0.36520183 0.135815
0.90462303 -0.5914787 0.5112267 1.0879824 0.5563519 1.1886702 0.7156583 -0.7414068

l2.bias f4 [8]
00000000: 453d 423f 009b 143f 7cba a7be 4c36 d1be
00000010: ff6f 093f 8041 51be ad47 5e3f 6b53 143e
0.7587474 0.5804901 -0.32759464 -0.40861738 0.5368652 -0.20435143 0.8682812 0.14484946

l3.weight f4 [12, 8]
00000000: 7921 98bf fe07 f43e f1cc abbe fd57 8f3e
00000010: 0c26 2abe b150 463d 76f0 95bf 3f56 a73e
00000020: c199 5f3f 9f0e b0bf 8865 d7bd 36f3 fcbe
00000030: 7311 eabf ef09 573e a01f 263f 5a67 d3be
00000040: 15ac 403f 3eb4 f2bf ab0b 9d3e 96e2 00c0
00000050: 74ef bd3e 2121 e6bf 0149 413f d84e 153e
00000060: 41bd ebbf 984b 7fbf eabb 0b3e b302 253f
00000070: 5344 adbe 0141 203f d9ec eb3e 290f dc3e
00000080: 1923 bb3e f53a babd fd70 9c3e b855 7cbf
00000090: 854c 2d3f d836 5dbe 381e a1bf af2e 24bf
000000a0: 8001 433e e543 60bf 7c0a 7bbe e632 0c3f
000000b0: 8a3b ccbf 65b6 333f 7a28 85bf 6489 913e
000000c0: 7d6e ef3d f25d 753e 20e6 c7bc 70a9 d6bf
000000d0: 55ea 03c0 5bfc 5b3f 950f 81bf 0461 8cbf
000000e0: 4bd7 e8bc f1b0 b6bf 34ea cebd f0bb 833e
000000f0: d303 4e3f bb16 58be 9bdc bbbc e12c b53e
00000100: b30f d93c 7e8b 333e 78c3 6c3d 6e6b c0bf
00000110: 0a91 0ebe 432f bbbf 7727 293f a250 36be
00000120: abff d5bf 1468 423f bf63 a8be 8761 8bbf
00000130: 5ac4 07c0 70a8 9dbd e174 813e be4f e23e
00000140: 4965 e1bf dda5 fbbd d26f 35be dd1f d4be
00000150: 3efe 933f 9193 94bf 0383 443e 37f1 093f
00000160: b3d0 d73e d03f 803f 809e 363c 04a5 4abf
00000170: fac3 eebf fc7a c8bf e765 7dbf 1227 8bbf
-1.1885215 0.47662348 -0.33554795 0.27996817 -0.16616076 0.048416797 -1.1714008 0.32682988
0.87343985 -1.3754462 -0.105174124 -0.49404305 -1.8286575 0.20999883 0.64892006 -0.41289788
0.75262576 -1.8961256 0.30672964 -2.0138297 0.3709675 -1.797886 0.7550202 0.14580858
-1.8417131 -0.9972472 0.13645902 0.64457244 -0.3384119 0.6259919 0.46079138 0.42980316
0.36550215 -0.090932764 0.30554953 -0.98568296 0.67694885 -0.21602952 -1.2587347 -0.64133734
0.19043541 -0.876036 -0.24515718 0.54765165 -1.595567 0.70200187 -1.0402977 0.28425133
0.11690996 0.23961619 -0.024401724 -1.6770458 -2.0611775 0.8593194 -1.008288 -1.0967107
-0.028422972 -1.4272748 -0.101032645 0.25729322 0.80474585 -0.21102421 -0.022932341 0.35385802
0.026496744 0.17533681 0.0578036 -1.5032785 -0.13922516 -1.4623798 0.66075844 -0.17804196
-1.6718649 0.7594006 -0.328886 -1.0889138 -2.1213593 -0.076981425 0.25284484 0.44201463
-1.7609035 -0.12287495 -0.17718437 -0.4143056 1.1561964 -1.1607534 0.19190602 0.5388369
0.42151412 1.0019474 0.011146188 -0.79158044 -1.8653557 -1.5662532 -0.98983616 -1.0871298

l3.bias f4 [12]
00000000: 24ff c5be 0b9c 90be 5daa 8b3e 2db2 f8bd
00000010: 3aff 063e 5be6 613e 5921 403e 8d9c 46be
00000020: ce45 4abe 589e 7e3e dce0 9b3e c4d5 0f3e
-0.3867122 -0.2824405 0.27278414 -0.12143359 0.13183299 0.2206053 0.18762721 -0.19395657
-0.19753191 0.24865091 0.30444992 0.14046389
